experiments/artifacts/new_model.tflite (tflite, 17188 bytes, 8 tensors)

dense_1/bias f4 [2]
00000000: e278 4ebd 2943 8f3c
-0.05040825 0.01748808

dense/bias f4 [16]
00000000: cf1d a03d 236f a3bc f5e3 24bc db9e 133e
00000010: 5c8f 4bbc aac0 b73c 5b27 343c f45f f2bc
00000020: 6d45 943d 19af 1c3b 4fec 753d 4f4c aabc
00000030: bb7f 493d 8be9 ed3b 000d ed3c f6fc fd3a
0.078181855 -0.019950455 -0.010064115 0.14416067 -0.012424316 0.022430737 0.010995711 -0.02958677
0.072398044 0.0023908077 0.060039815 -0.02078834 0.04919408 0.0072605065 0.028936863 0.0019377756

conv2d_1/bias f4 [8]
00000000: 94a8 e7bd 8f9a f9bd c499 0c3d 05fc 1fbd
00000010: b277 e93d 2647 6ebb 2949 18be be9e 6db9
-0.113114506 -0.12187683 0.03432633 -0.039058704 0.11399783 -0.0036358326 -0.14871658 -0.00022661217

conv2d/bias f4 [16]
00000000: de57 63be 91d6 07be ced7 3abe 6559 cabb
00000010: c978 82b9 ce92 cb3c 5584 e3bd a040 25be
00000020: 138a 39bd 51cb 58bd ed0f 44be 501e 0bbe
00000030: f150 04bd 216f e33c fe0a 03be 7268 45bb
-0.22201487 -0.13265444 -0.18246385 -0.0061752074 -0.00024885524 0.024850275 -0.11109225 -0.16137934
-0.045297693 -0.052928273 -0.191467 -0.13585782 -0.032303754 0.027762951 -0.12797162 -0.0030122069

sequential/dense/MatMul f4 [16, 176]
00000000: 7abc 6d3e 65b1 053e 87ef aabc c618 a6bc
00000010: 7c65 aa3e 72c2 b03d c02a 523e 3158 aabe
00000020: 671c f83d e8ba 8d3e ca59 1bbe b943 64be
00000030: 865a 533e fd88 fc3d b65c 303e c638 e8bd
00000040: b64e 823e e74b ac3d a7b9 b4bd 379e 46be
00000050: ed19 963d 1467 fbbd face 0b3e bdca f6bd
00000060: 0abd 103e 85d1 8cbd fe45 01be 6840 b13e
00000070: 2eb2 9ebd 4d16 54bd 355a 9e3e ee83 033e
00000080: 44cf ba3d f7e2 553e 1bda 35be 1c61 933e
00000090: 0370 a43d 4f3f d1bb 8dbd a33d 0b5b 21be
000000a0: 48bb 53bc f7f9 4b3c 72f7 46be c2b0 06bd
000000b0: 90d1 98bd 0acb b1bd e572 a93d ef79 b0bd
000000c0: d48e e23d 1dd9 513e 9b82 49be cd18 453e
000000d0: cea2 0ebd fcfe 12be b685 a13e 4865 9dbd
000000e0: 077f b9bc 6315 443e 1e4c 42be e596 a53c
000000f0: 5f90 a13d 22c2 bdbd eab1 803e 7e73 2b3d
00000100: ef0c f93d c857 8b3c 36bf e1bd 173a 38be
00000110: c257 d7bc 03c5 4fbe 5e39 f63d a38b f2bd
00000120: 707c d53d e079 92bc f226 1fbc 563e dd3d
00000130: 0b63 e03c 2df3 43be b7bf 643e bfc2 bebd
00000140: 8bf1 8b3c 64cf b33d 3e56 90bd 302c 1d3e
00000150: 33a1 813d 3da4 aabd d1e5 4b3e 8331 82be
00000160: 4aea 1c3e 0689 69bd 1ac0 253c e791 113e
00000170: 8a35 e53d 17a0 15be d417 953e 374b 91be
00000180: 257e 79bc 6373 863d 9e26 f1bd 1948 47bd
00000190: cfc8 543e 4541 143d 94b8 4b3e 193e 70be
000001a0: 381c 71bc 87de 853e cf61 fabd 843d 493e
000001b0: d185 483d cd6a f2bd 0c99 a53e 64b9 5eba
000001c0: d460 413a 2980 d93b 01b2 ea3c b858 e538
000001d0: 3817 1d3d 6d6e 07be 6f1f c83c c0c8 b6be
000001e0: 0420 9ebc fd27 263b 2c70 82be ef72 f73d
000001f0: 49f5 0e3e 9a96 25bd a99d 3d3e bef7 47be
00000200: e3cb a4bc 2db1 993b e3ae eabd eee1 3f3d
00000210: ca70 5abd a373 8fbd dfe8 1c3b 5f91 b9bd
00000220: b9fd 813d 8aca 643e f236 9c3c 9cb0 2cbd
00000230: cd42 e43d ed4d 623d 36c0 b93d 9c17 d2bd
00000240: b834 1c3e 471e a6bc 5b2d 013d a209 aa3d
00000250: dbd7 6ebc 0f0e 84be d1c8 923e a470 c33d
00000260: 3b90 ffbc d64f e93d 6d03 73be d377 163e
00000270: db33 7d3d 43c7 a6bb cb98 6d3e e954 47be
00000280: e8b7 c53d d1b9 373e 789d ffbd 3241 d93d
00000290: 30b2 303e 202f a4bd 4231 a83e a551 55be
000002a0: 7a88 043e d1bc 533e cac3 743e 6359 203e
000002b0: 91a0 813e 70e3 5b3e cecc af3e fb6d a03d
000002c0: b841 343d 8eb6 ae3d b47f b9bd 7402 553c
000002d0: 8faf a73c 622a 553e ee78 b13c 655f 54be
000002e0: 7a0c 9e3d 02d4 0c3e 1918 44be 488c c6bd
000002f0: c698 723d 40aa 92bd 4a45 163e ec49 c6bd
00000300: 2d5e 7d3e 28af 923d 475a 32be 7ee3 9c3d
00000310: fdeb 0cbd 6994 813d 00b0 803e 5846 65be
00000320: f32e 7c3e 6b60 183e f02f ecbc 406f 8f3e
00000330: afb4 46bd 62df 163b d059 823e ac97 28be
00000340: 7935 f5bd 3b94 aa3d 8b1d 65bd 3274 513e
00000350: 9e6d dfbd 03f6 763d 2bd8 4d3e 0b1f e2bd
00000360: 2384 b33d cd0c 073e cd39 4ebe 8943 8d3e
00000370: 1af1 4d3d 34a9 d73d 1bcf 433e 94ce 74be
00000380: 4bd2 0b3e 47d2 9fbd 3c7c 663d cbf2 853e
00000390: 27bb 6e3d ea77 50bd 6892 973e e0b3 f93d
000003a0: 31f8 1f3e e84a 4c3e 0db5 d2bd 0649 ffbc
000003b0: 0e1b f1bd bbee e4bd c339 d83d 8c8b 083d
000003c0: f52e f33d 97f8 b9bb 2f92 c0bd 0cb1 683d
000003d0: a5ed e63d c88c 073e 9eb9 003e f466 70be
000003e0: cc61 7a3e 4cb2 be3d e2ca 42be f40d 823e
000003f0: ff28 c13d 1a0e 173e 8c1c 53bd b5da f5bc
0.2321643 0.13055952 -0.020866169 -0.020275485 0.3328055 0.086308375 0.2052412 -0.3327041
0.12114792 0.2768166 -0.1517097 -0.22291459 0.2064 0.12330816 0.17222866 -0.11338954
0.25450677 0.08412915 -0.08824473 -0.19396292 0.07329164 -0.1227552 0.13653174 -0.12050388
0.14134613 -0.068759 -0.12624356 0.3461945 -0.07748829 -0.05177908 0.30928198 0.12843296
0.09121564 0.20887361 -0.17758982 0.28785026 0.08029177 -0.006385721 0.07995138 -0.15757386
-0.012923069 0.012449733 -0.1943033 -0.032883413 -0.07461846 -0.08681305 0.082738675 -0.08617007
0.110623986 0.20492978 -0.19678728 0.19247742 -0.03482323 -0.14355081 0.31547326 -0.076853335
-0.02264358 0.19148783 -0.18974349 0.020213554 0.07888865 -0.092655435 0.25135738 0.04185819
0.1216067 0.01700963 -0.11022799 -0.1799091 -0.026286963 -0.20289998 0.12022661 -0.1184304
0.10424125 -0.01788038 -0.009713875 0.10802905 0.027390977 -0.19135733 0.22338758 -0.093144886
0.01708295 0.08779791 -0.070476994 0.15348887 0.063295744 -0.08332107 0.19911887 -0.254284
0.15323749 -0.05701544 0.010116601 0.14215814 0.111918524 -0.1461185 0.29119742 -0.28377697
-0.015227829 0.06564977 -0.11774944 -0.048652742 0.20779727 0.03619506 0.1989463 -0.23461188
-0.0147162005 0.26146337 -0.12225687 0.19652373 0.048955742 -0.11836777 0.32343328 -0.0008496253
0.0007376794 0.0066375923 0.028649332 0.00010936096 0.03835222 -0.13225718 0.024429051 -0.35700035
-0.019302376 0.0025353425 -0.25476205 0.12082469 0.13960756 -0.040426828 0.18517174 -0.195281
-0.020116752 0.0046903105 -0.11459138 0.046846323 -0.05333022 -0.07004478 0.0023942513 -0.090609305
0.06347222 0.22342888 0.019069169 -0.042160615 0.11145554 0.055250097 0.090698645 -0.102584094
0.15254486 -0.02027811 0.031537395 0.083026186 -0.014577831 -0.25791976 0.28668836 0.09542969
-0.031196704 0.113921806 -0.23731776 0.14694147 0.06181703 -0.005089672 0.23202817 -0.19465984
0.09654218 0.17941977 -0.12481207 0.10608138 0.17255473 -0.08016801 0.3285008 -0.20831926
0.12942687 0.20677496 0.23902813 0.15659098 0.25317815 0.2147348 0.3433594 0.07833477
0.044007987 0.08530913 -0.090575606 0.013001073 0.020469455 0.20816949 0.02166411 -0.20739515
0.077172235 0.1375275 -0.19149818 -0.09694725 0.059227727 -0.07161379 0.14674869 -0.09682068
0.24742956 0.07162315 -0.1741725 0.07660578 -0.034404743 0.06327135 0.25134277 -0.22390115
0.24627285 0.1488053 -0.028831452 0.28014565 -0.048512157 0.002302133 0.25459146 -0.16464108
-0.1197309 0.08329054 -0.055936377 0.20454481 -0.1090958 0.06029321 0.20101993 -0.11041077
0.087654375 0.13188477 -0.20139237 0.27590588 0.05027876 0.1053032 0.19121973 -0.23906928
0.13654439 -0.07803779 0.056270823 0.261618 0.05828395 -0.05089561 0.29603887 0.121925116
0.15622021 0.1995045 -0.10288439 -0.03116275 -0.117727384 -0.11178347 0.10557892 0.033336207
0.11874191 -0.005675386 -0.09402882 0.05680947 0.11275796 0.13237298 0.12570807 -0.23476774
0.24451369 0.09311351 -0.19022706 0.2540127 0.094316475 0.14751473 -0.051540896 -0.030011514

sequential/dense_1/MatMul f4 [2, 16]
00000000: 403e 203e c617 913e 2985 0d3f 05a4 683f
00000010: 1bf9 333f c66a fa3e 3115 e73e c0d8 373d
00000020: 86d2 4cbf df68 693e aee8 7f3e 4ef6 acbd
00000030: 756f 9ebe f71e 1abe f47d 18bf 3ed1 02be
00000040: 8b09 66bf fc5f 2fbf 4a33 c3bd 12c5 eabd
00000050: 0656 f0be b689 7ebe c96f 6e3e 5b1f 513e
00000060: 6962 d13e 1fa5 c13d 96fb 26bf 46b9 cb3e
00000070: 9ca2 80ba bf37 093f 564f 1b3f 40d6 0e3f
0.15648746 0.2833845 0.5528131 0.90875274 0.7030198 0.48909587 0.45133355 0.044884443
-0.80008733 0.22793911 0.24991104 -0.084454164 -0.3094441 -0.15050875 -0.5956719 -0.12775132
-0.8985831 -0.68505836 -0.09531267 -0.114633694 -0.4694063 -0.2485722 0.2328483 0.20422117
0.40895393 0.094553225 -0.6522764 0.3978979 -0.0009814086 0.53600687 0.6066793 0.5579567

sequential/conv2d/Conv2D f4 [16, 3, 3, 1]
00000000: 91bd a03e 0119 673d c503 0f3d 16db 85be
00000010: 0e9d 233e 431b 22be b288 393e 4fa0 5d3e
00000020: a105 a9bd b0c7 3f3d 0245 59be 7aad 8fbb
00000030: d63d c1bd fd6d 97bc 57f6 1abe dedf 2dbe
00000040: a39a e6bd a398 223d 1321 5dbe 495f 8bbe
00000050: 27d1 d43d 0f41 7a3e e860 4dbe e6a0 9abe
00000060: 2d3a a0be 517f aebd e565 19be 1442 193e
00000070: 8204 893e d5f7 c3bb c221 63bd 5a4b c63e
00000080: 667f 133e 1f30 233e a04e b2bb fe82 1b3e
00000090: 12da 5e3e a5e0 90bb 4fbb 64be f12e 4dbe
000000a0: 1825 f6bd 67d5 adbe 5ef9 033e 551d af3d
000000b0: 0654 8c3e 1a48 15bd 14c4 ae3d d312 903e
000000c0: 62dc cdbd 1b66 dcbd d848 4abd e2ee 11bd
000000d0: 6a27 35be dfc8 0f3e 6285 7b3d edb1 c0bd
000000e0: efde e13a 7a47 b2bd 5bf9 ea3d 0873 2bbc
000000f0: 4649 56bd 1767 6f3e 8368 1a3e 9175 57bc
00000100: 8903 c5bd 7519 653d 250c 87be 8712 8d3d
00000110: cc71 73be d0dc b2bc 11b2 3f3e 5bcc edbd
00000120: a287 8dbd 5f10 5c3e f746 83bd bb61 cabd
00000130: 31df 913e 4f55 613e 47ee b23d 773b 5bbd
00000140: 337d e2bb 43fa 97bd 7122 d73c 7b04 3fbe
00000150: b904 4bbe 9ca3 1bb9 3dd8 643e 7e13 ad3d
00000160: c394 c83d e2d0 a03e e636 8abb 3ffe b93d
00000170: 7976 97be b4a6 d1bd 2874 a6be 2262 66be
00000180: 8643 75be c768 20be 174d f5bd 7e8d bb3d
00000190: 981e f13d c4de f23d 49b2 64be bd95 6e3e
000001a0: 0b76 80bd 83bc ba3d a825 8abd 3534 69bd
000001b0: 041c 82bb 2bbc 5e3c 850c 15bd 0112 ca3d
000001c0: 62d8 c83c 6474 35be af7a 07be 5ffb 563e
000001d0: 9a7c 813c 3a74 093d dd05 67be 6b14 4a3e
000001e0: b9d7 1e3e a32b 993e 46fe b9bc ae10 713d
000001f0: aec8 d1bc 34ea 393e c731 83be 2958 1fbe
00000200: 1d0e 773d 8c26 4a3e 5c96 83bc fdf9 aabd
00000210: c70a 96be 0b02 f23d bb57 40bb a440 90bd
00000220: 4388 3c3e c07d 5ebe 9d41 013e ec6c 743d
00000230: 64ce cbbc efc3 b03b 1d6f 51bd 781d 9cbe
0.31394628 0.05642033 0.034915704 -0.26143712 0.1597788 -0.15830712 0.18118551 0.21643184
-0.08253027 0.046821296 -0.2121773 -0.0043846937 -0.094356224 -0.018485064 -0.15133034 -0.1697993
-0.11259963 0.039696347 -0.21594648 -0.27221134 0.10391455 0.2443888 -0.20056498 -0.3020088
-0.31294385 -0.085203774 -0.14980276 0.14966613 0.26761252 -0.0059804716 -0.055452116 0.38729364
0.14404067 0.15936325 -0.0054415017 0.15186688 0.21762875 -0.004421311 -0.22337078 -0.20037438
-0.12018794 -0.33951876 0.12888095 0.085505165 0.27407855 -0.036445715 0.08533493 0.28139362
-0.100518 -0.107616626 -0.049385875 -0.035628207 -0.17690817 0.1404147 0.0614065 -0.09408937
0.0017232577 -0.08705039 0.11473342 -0.010464437 -0.052315973 0.2337917 0.1507893 -0.013150589
-0.09619815 0.05593248 -0.26376453 0.068882994 -0.23773879 -0.021833807 0.1872027 -0.11611243
-0.069106355 0.2149062 -0.0641002 -0.09881922 0.28490594 0.22005199 0.08736854 -0.053523507
-0.0069118976 -0.074207805 0.02626154 -0.18654053 -0.1982602 -0.00014842901 0.22348113 0.084509835
0.09793999 0.31409365 -0.00421797 0.09081697 -0.29582575 -0.10236874 -0.32510495 -0.22498372
-0.2395154 -0.1566497 -0.11977594 0.09157847 0.117734134 0.118588954 -0.22333635 0.23299308
-0.06272515 0.09117987 -0.067454636 -0.056934554 -0.003970625 0.013594667 -0.036388893 0.09866715
0.024517242 -0.17720181 -0.13230394 0.20994328 0.015806485 0.033558108 -0.2256083 0.19734351
0.15511979 0.29916105 -0.022704255 0.058853798 -0.025608387 0.18155748 -0.25623915 -0.15560974
0.060316194 0.19741267 -0.016062908 -0.08348463 -0.29305097 0.11816796 -0.0029349166 -0.07043579
0.18411355 -0.21727657 0.12622686 0.05967419 -0.024878688 0.005394451 -0.051131357 -0.30491233

sequential/conv2d_1/Conv2D f4 [8, 2, 2, 16]
00000000: 3fed 1a3e 3156 333e f67d 5e3e 8acc b03e
00000010: 301b e53c f20e 66bd 41e0 26bd 31e2 723d
00000020: 2cbb 763e dbe0 463e 7d1f dbbd 5daa a53e
00000030: d8ed 973e cc4e 983d 3afb 59bd 96c1 13be
00000040: 806a c03b 1078 433d b86d 1abe 44cd 0dbe
00000050: 5034 4dbd a026 b53c d4d9 663e 488c 273e
00000060: 2c09 27be e066 b03d 1c08 6f3e 606a bfbd
00000070: 24c1 15be a05a 73be 1807 833d c04b d7bc
00000080: b46e bf3a b426 623e ced1 bc3e 4689 ddbd
00000090: 5857 d5bd 43ae 0dbe c605 b3bc ee6e b9bd
000000a0: ad7c 9f3c 263f 2c3e 808c a63e e9e1 1a3e
000000b0: 4822 5c3e e190 49bd 7bb0 b13e 58fb 85bc
000000c0: 60b4 0ebd 90bd 5dbd 9849 d6bd 10d6 543e
000000d0: 701c 2cbd 88a3 5b3e cc6b 2abe a47a 16be
000000e0: a89e f53d 8814 9bbd 00f3 9d3d 08cb 48be
000000f0: 8c5c 053e 80ed b43c 4840 c93d 00e2 40bd
00000100: bffa 493e 44e4 5fbe b2b3 983e 8cfc 8e3e
00000110: f436 643e 74d4 083e 044b 463e b29a 1d3e
00000120: 8561 843e 373e 05be 61ce 3f3e 2b6d 9b3c
00000130: 557e 93bd a7cd 343e 11ef 983e 2fd9 f9bd
00000140: c4a5 2e3e b039 51be 102c 22bd a026 a53d
00000150: 9067 513e 6061 23be dc9a 48be a0ce e3bd
00000160: 304f 8abd b09e 0b3d 9c17 533e 00ca 9bba
00000170: f837 30be f09e 1ebe 18c6 49be f4f9 00be
00000180: e65f 9a3e 2d8f 31be ed36 953e 61a6 f0bd
00000190: ffe8 ff3d 3e9b 713d 76bb 0f3e d3a9 433e
000001a0: a35c 05be 0537 133e 488f 223e 28bb 3cbc
000001b0: 254c a63d 22bd cabb 2eb2 57bd 47fe 763d
000001c0: 6ca1 373e 2098 b5bd 60e8 183e 0011 603e
000001d0: e0c5 13bd fc7f 4bbe d4b4 79be 4c4d 1f3e
000001e0: 9010 24bd a4b2 3b3e 648c 623e 64e7 18be
000001f0: 20a6 9cbc 5c0a 073e 7440 7e3e 103d 203d
00000200: 3dfc acbe c422 5bbd 4b1e 99be a95a 293e
00000210: 2299 3a3e 48e8 a83e 2200 e8bd d243 8ebc
00000220: 7878 bc3e aaca 6e3e 1cc8 49be 2f7f 213e
00000230: 9866 43bd 7c8d b53e 3faa 33be 7713 d8bd
00000240: 841c 61be c8d4 a23d 3097 0b3e 40b9 363e
00000250: 709c c23d 44aa 7cbe 3cc9 46be 60c8 d9bc
00000260: 58b5 af3d e0d7 b0bd 2036 d73d b058 4c3e
00000270: 0043 5dbe 7c69 0b3e 0c6d 41be 6424 523e
00000280: 1538 48bd f421 f6bd 16b6 c5bd 22e2 003e
00000290: 74d7 bfbc 3c20 06be e16d 09be 29db 67be
000002a0: 4bbd 88bd 2859 82be 4a17 30be 3526 19be
000002b0: 1542 5ebe 20ab 2c3e fca4 a9be ea8f a13e
000002c0: 68a1 28be 10c5 c4bd f05f 73bd 404a 203c
000002d0: 8063 e1bc c8ee c5bd 2851 043e d02b 8a3d
000002e0: 10d6 d03d c062 29bd 00bb 4ebd 5c00 2a3e
000002f0: 30f2 883d 4c4f 423e e0f8 263e 4801 e4bd
00000300: 7ec5 d7bd 1a80 87be f88e d03d da87 14be
00000310: 47a2 223e 4bcf 63be bd63 b43c b0fb 7dbe
00000320: d9f0 c3bd 999b 833e bdd4 62be 7af9 1ebe
00000330: 0e37 9fbc 9bb7 063e 0dd4 ebbd bd8a 19be
00000340: 4838 b23d e035 f1bd e0f6 79bd c013 df3d
00000350: 808b a4bc c81b 7fbe 70ca b4bd 0859 073e
00000360: 8835 44be 40f3 493d d0e5 413e 00c8 8ab9
00000370: a0ce fd3d 8012 d1bb 7038 44be f432 613e
00000380: 6e2d 8a3d 2c8a 2abe a3ce 38be 4d70 923b
00000390: 9c5f 4f3e 443c 1ebe a573 243e 9eaf 24bd
000003a0: 7140 d83d ee27 a33d e29a 07bc 4942 8c3e
000003b0: 92ba 91bc a423 5cbd 3318 783e 1ff0 92bc
000003c0: dc94 48be cc64 06be 00ff bbbd 10d0 b93d
000003d0: 0c79 573e 6c6c 0fbe d084 f93d 0003 86bd
000003e0: 3877 b2bd 8014 0dbe f0a4 20be 9cec 14be
000003f0: e043 383d 6074 7d3d c066 20be e047 553e
0.15129565 0.17513348 0.21727738 0.3453105 0.027967066 -0.056166597 -0.04074121 0.059297744
0.24094838 0.19421713 -0.10699365 0.3235654 0.29673648 0.07436904 -0.053218104 -0.14429316
0.005872071 0.047721922 -0.15080917 -0.13847834 -0.050098717 0.022113144 0.22544032 0.16362107
-0.16312093 0.08613372 0.23342937 -0.09346461 -0.14624459 -0.2376504 0.063978374 -0.026281238
0.0014605136 0.22085077 0.36878818 -0.108171985 -0.1041705 -0.13836007 -0.021853339 -0.09054361
0.01946863 0.16820964 0.32529068 0.1512524 0.21497452 -0.049210433 0.34704956 -0.016355202
-0.034839988 -0.05413586 -0.10463256 0.20784783 -0.042019308 0.21449101 -0.16642684 -0.14695221
0.11993152 -0.075722754 0.07712364 -0.196087 0.13023585 0.022085905 0.09826714 -0.04709053
0.19724558 -0.2186442 0.29824597 0.27927053 0.22286588 0.13362294 0.19364554 0.15391043
0.25855651 -0.13012014 0.18731071 0.018972954 -0.0720183 0.17656575 0.29869893 -0.121996276
0.17055422 -0.20432162 -0.039592803 0.08064008 0.20449662 -0.15955114 -0.19590324 -0.11123395
-0.06753385 0.034086883 0.20614475 -0.0011885762 -0.1720885 -0.15490317 -0.19704473 -0.1259535
0.3015129 -0.17339773 0.29143468 -0.11750484 0.12495612 0.05898594 0.14036354 0.19107752
-0.1302362 0.14376457 0.1587497 -0.011519231 0.08119992 -0.006187097 -0.05266016 0.06030109
0.17932671 -0.08866906 0.14932394 0.21881485 -0.03607738 -0.19873041 -0.24385387 0.1555683
-0.040054858 0.18329865 0.22123867 -0.14932019 -0.019122183 0.13187546 0.24829274 0.039120734
-0.33786193 -0.053499952 -0.29905924 0.1653849 0.18222478 0.32989717 -0.1132815 -0.017366324
0.3681066 0.23319498 -0.19705242 0.15771173 -0.047705263 0.35459507 -0.17545412 -0.105505876
-0.21983534 0.07950741 0.13631892 0.17844105 0.09502494 -0.24674326 -0.19412702 -0.026584804
0.085795105 -0.08634925 0.105083704 0.19955707 -0.2160759 0.13614458 -0.18889254 0.20521694
-0.04888161 -0.12018195 -0.09653871 0.12586263 -0.023418166 -0.13098234 -0.13420822 -0.22642197
-0.0667673 -0.25458646 -0.17196384 -0.14955981 -0.21704896 0.16862154 -0.33133686 0.3155511
-0.16467822 -0.09607899 -0.059417665 0.009783328 -0.027513266 -0.096646845 0.12921584 0.06746638
0.10197079 -0.04135394 -0.050471306 0.166017 0.066868186 0.18975562 0.16305876 -0.11133057
-0.105357155 -0.2646492 0.10183519 -0.14504948 0.15882216 -0.22247045 0.022020215 -0.24803042
-0.095674224 0.2570465 -0.22151466 -0.15524855 -0.019435432 0.13155977 -0.11515055 -0.1499433
0.08702141 -0.11777854 -0.061026454 0.10892439 -0.02008605 -0.24912941 -0.088276744 0.13217556
-0.19161046 0.049304247 0.18935323 -0.00026470423 0.12392926 -0.006380379 -0.19162154 0.21992093
0.06746946 -0.16654271 -0.18047576 0.0044689537 0.20251316 -0.15452677 0.1605974 -0.040206544
0.10559166 0.079666 -0.008276673 0.27394322 -0.017789159 -0.053744927 0.24227981 -0.017936764
-0.19588035 -0.13124388 -0.09179497 0.09072888 0.2104227 -0.14006203 0.12183535 -0.06543541
-0.087141454 -0.13777351 -0.15687919 -0.14543384 0.044986606 0.061878562 -0.15664196 0.208282
