7. 실제 데이터 분석 및 CNN 모델 생성/new_final_model.tflite (tflite, 17188 bytes, 8 tensors)

dense_1/bias f4 [2]
0	0x3d6ed2a2	0.058306344
1	0xbd75f37a	-0.06004665

dense/bias f4 [16]
0	0x3b2144cd	0.002460766
1	0x3cb18d1c	0.021673732
2	0x3d8f7b55	0.070059456
3	0x3db790b2	0.08963145
4	0xbcd7b7c8	-0.02633275
5	0xbb0b23b7	-0.0021231005
6	0x3c171d01	0.009223224
7	0x39b5d0fb	0.00034678713
8	0x3bcbc1d6	0.0062181754
9	0xbc98d016	-0.01865391
10	0x3c5fe926	0.013666427
11	0x3e0d0ac9	0.13773645
12	0xbcb5352b	-0.022120079
13	0x3dccdde6	0.10003261
14	0x3d8c6051	0.068543084
15	0x3d95cd10	0.07314503

conv2d_1/bias f4 [8]
0	0x3e3db0db	0.18524496
1	0x3e3666f6	0.17812714
2	0x3e306413	0.17225675
3	0x3e188153	0.14893083
4	0xbc831fba	-0.01600634
5	0xbc5634cb	-0.01307411
6	0x3e09584a	0.13412586
7	0xbcd4d2a0	-0.02597934

conv2d/bias f4 [16]
0	0xbd5953fc	-0.05305861
1	0xbd2a8e89	-0.04163984
2	0xb9852b6d	-0.00025400092
3	0xbdb52008	-0.08844
4	0xba235662	-0.00062308286
5	0xb9363189	-0.00017375326
6	0x3e279d50	0.16368604
7	0xba069828	-0.00051343674
8	0xb9ace45e	-0.00032976543
9	0xba8d674d	-0.0010788232
10	0x3e80a1da	0.25123483
11	0x39f983b9	0.00047591122
12	0x3e4ef34c	0.20209998
13	0xb947374b	-0.00018998717
14	0xbd15aeba	-0.036543585
15	0x3e81bc20	0.2533884

sequential/dense/MatMul f4 [16, 176]
0	0x3affbdd3	0.0019511528
1	0xb9f39482	-0.0004645922
2	0xbd586c19	-0.052837465
3	0xbdadd3da	-0.08487673
4	0x3db84ec9	0.08999402
5	0x3e4446e3	0.19167666
6	0xbe6ed26e	-0.2332246
7	0x3ccf52d0	0.025308043
8	0xbe9dc85d	-0.30816928
9	0xbea97d2c	-0.3310331
10	0xbdc2d3c6	-0.09513049
11	0xbe070323	-0.1318479
12	0x3e266914	0.16251022
13	0x3dfcc6ef	0.12342631
14	0xbe07deeb	-0.1326863
15	0x3e1a1d28	0.15050185
16	0xbd1a345e	-0.037647597
17	0xbd73edff	-0.059553143
18	0xbe660c0b	-0.22465532
19	0xbe3d1d7c	-0.18468279
20	0x3e418afb	0.18900673
21	0xbdb9266c	-0.090405315
22	0xbe238dde	-0.15972087
23	0xbe37a733	-0.17934875
24	0xbd92022c	-0.071293205
25	0xbe9caaed	-0.30599156
26	0xbdaa005d	-0.083008505
27	0xbe807777	-0.25091144
28	0x3e5c2fd6	0.21502623
29	0x3d8ab58a	0.06772907
30	0xbe8880a9	-0.2666066
31	0xbdc313e9	-0.09525282
32	0xbe2dd3fd	-0.16975398
33	0xbdf73ef2	-0.12072553
34	0xbd8d7ed2	-0.06908955
35	0xbe0ff7fc	-0.14059442
36	0x3dd37834	0.10325661
37	0x3e3cf9ba	0.18454638
38	0xbe0e77a9	-0.13912834
39	0x3d832aa7	0.0640462
40	0x3d0e98af	0.03481358
41	0xbe26d228	-0.16291106
42	0xbe79b2a1	-0.24384548
43	0xbd6027a3	-0.0547253
44	0x3d7cf6d5	0.061758835
45	0x3d9bfbe8	0.07616407
46	0xbd43c744	-0.047797456
47	0x3e09256a	0.13393179
48	0xbe60b45e	-0.21943805
49	0x3d1fbf43	0.03900076
50	0x3d6359c8	0.055505544
51	0xbe91c905	-0.28473678
52	0x3e607e63	0.21923213
53	0x3deaf753	0.114729546
54	0xbc04a670	-0.008096322
55	0x3e19cd70	0.15019774
56	0x3be14aa7	0.0068753543
57	0xbe94e247	-0.29078886
58	0xbe30645d	-0.17225786
59	0xbe09dae6	-0.1346241
60	0x3d1bc571	0.03803009
61	0x3d403690	0.046927035
62	0xbdd63fb0	-0.10461366
63	0xbdcb740b	-0.09934243
64	0xbb0c29ad	-0.0021387145
65	0xbd4918e9	-0.04909602
66	0xbd39ea9f	-0.045389768
67	0xbc6bfa22	-0.014402898
68	0xbdb3fedb	-0.08788844
69	0x3e179e6a	0.14806524
70	0xbce1830e	-0.027528312
71	0xbe1b4044	-0.15161234
72	0xbea300b1	-0.31836465
73	0xbde0fa52	-0.10985245
74	0x3d927af7	0.0715236
75	0xbe4b5677	-0.19857202
76	0x3e1e7eb2	0.15478018
77	0x3e14dbf5	0.14537032
78	0xbe5fdf28	-0.21862471
79	0xbcbaa104	-0.022781856
80	0xbee9d215	-0.45668092
81	0xbdcfe85c	-0.10151741
82	0xbe2881f5	-0.16455825
83	0xbdb2ba4c	-0.087269396
84	0x3d60c565	0.05487575
85	0x3e71345d	0.23555131
86	0xbea972ae	-0.33095306
87	0x3e008a43	0.12552743
88	0x3ce7f66d	0.028315747
89	0x3c0aaeb6	0.008464506
90	0x3d2a2833	0.041542243
91	0xbe837ede	-0.2568273
92	0x3bb74eae	0.005594096
93	0xbd50164e	-0.05080252
94	0x3db9cea7	0.09072619
95	0x3d6e248d	0.058140326
96	0xbce92227	-0.028458668
97	0xbe1015a2	-0.14070752
98	0xbcc9d764	-0.024638839
99	0xbe1c70b5	-0.1527737
100	0xbd51cd98	-0.05122146
101	0x3e629c2a	0.22129884
102	0xbe4efcc5	-0.20213611
103	0xbca94a49	-0.020665305
104	0xbebac56a	-0.3647874
105	0xbe478f40	-0.1948824
106	0x3dabf5cc	0.083964914
107	0xbeb016de	-0.34392446
108	0x3e90c851	0.2827783
109	0x3e8ec77e	0.27886575
110	0x3d043c95	0.032284338
111	0xbe0de598	-0.13857114
112	0xbd2388f3	-0.039925527
113	0x3ce9e09f	0.02854949
114	0xbe45b6dc	-0.19308037
115	0xbce3d6fd	-0.027812475
116	0x3dfe53b8	0.12418312
117	0x3e4d9ec1	0.20080091
118	0xbe8a0947	-0.26960203
119	0x3d12f0ba	0.035874106
120	0xbe1ca3a4	-0.15296799
121	0x3d4f2021	0.05056775
122	0xbd016673	-0.031591844
123	0xbe536128	-0.20642531
124	0x3e328ae1	0.1743579
125	0x3ddd3b7f	0.108023636
126	0x3dd53545	0.10410551
127	0xbe076d3c	-0.13225263
128	0x3d66e751	0.056372944
129	0xbb65d218	-0.0035067853
130	0xbe31fbbb	-0.17381184
131	0xbdb252f4	-0.08707228
132	0x3d628982	0.05530692
133	0x3d66120e	0.056169562
134	0xbe1d98de	-0.15390345
135	0x3de574c5	0.11203913
136	0xbe0b1817	-0.13583408
137	0xbe4f4339	-0.20240487
138	0xbc0f13d7	-0.0087327575
139	0xbddb78fc	-0.10716435
140	0x3e216f6e	0.15765163
141	0xbdf56d37	-0.11983722
142	0xbe2c3ce1	-0.16820098
143	0xbe2df6e3	-0.16988711
144	0xbe317d1a	-0.17332879
145	0xbdfbb3fc	-0.12290189
146	0x3d8b8e7c	0.06814286
147	0x3ca2941e	0.019846018
148	0x3e1e6c64	0.15471035
149	0x3e4ca425	0.19984491
150	0xbe62be1b	-0.22142832
151	0xbdca0a4c	-0.09865245
152	0xbddd0a7e	-0.10793017
153	0xbecbcf43	-0.39806566
154	0xbe1e7ae6	-0.1547657
155	0xbe026223	-0.12732749
156	0xbd70bf61	-0.058776263
157	0xbc8fa3fb	-0.017534247
158	0xbec39f5f	-0.38207528
159	0xbdc6442b	-0.09680971
160	0xbe6a8cfd	-0.22905345
161	0xbe669b1b	-0.22520106
162	0xbe1edc1c	-0.15513653
163	0xbe0d6da7	-0.1381136
164	0x3d37799c	0.04479371
165	0x3e414704	0.18874747
166	0xbe164751	-0.14675643
167	0xbdf11c80	-0.11773014
168	0x3e43acb3	0.19108848
169	0xbda4fa14	-0.08055511
170	0xbed39824	-0.41327012
171	0xbe32525b	-0.17414229
172	0x3e63cbae	0.22245666
173	0x3e8e6fe2	0.27819735
174	0x3d935f39	0.07195897
175	0xbd22a594	-0.03970869
176	0xbe3fbb83	-0.18723874
177	0xbe6d429c	-0.2316994
178	0xbe8ab397	-0.2709014
179	0xbddf3cf5	-0.109002985
180	0x3d7f7c4d	0.0623744
181	0x3d9bcac0	0.07607031
182	0xbe9acc58	-0.30234027
183	0x3c97d35c	0.018533401
184	0xbeaa603f	-0.33276555
185	0xbebd812f	-0.37012622
186	0xbe62f37b	-0.22163193
187	0xbe80eff9	-0.25183085
188	0x3e8d55bb	0.2760447
189	0x3e159505	0.14607628
190	0xbe61a249	-0.22034563
191	0x3de1b07e	0.11019991
192	0xbd411503	-0.04713918
193	0xbe8c8208	-0.27442956
194	0x3c9e5819	0.019329118
195	0x3ce90939	0.02844678
196	0x3d5a9456	0.05336412
197	0x3e1320ab	0.1436793
198	0xbe7107d4	-0.23538142
199	0x3e1aa757	0.15102898
200	0xbd624315	-0.055239756
201	0xbebfea3f	-0.37483403
202	0xbd8c9740	-0.06864786
203	0xbe0b0ac8	-0.13578331
204	0x3d3eb406	0.046558402
205	0x3d99709c	0.07492182
206	0xbe8a8063	-0.27051076
207	0xbe2ec861	-0.17068626
208	0xbebd9a91	-0.37031987
209	0xbdfec279	-0.124394365
210	0xbe1701c4	-0.14746767
211	0xbe3407e5	-0.17581137
212	0x3dc314b7	0.095254354
213	0x3e0589e6	0.13040885
214	0xbbe9806c	-0.007125905
215	0x3c1b75d6	0.0094885435
216	0xbe17be1e	-0.14818618
217	0xbe521d07	-0.20518886
218	0xbe060d85	-0.13091095
219	0xbe8cd80e	-0.27508587
220	0x3e78d938	0.24301612
221	0x3e8d0efc	0.27550495
222	0xbe2bc9c3	-0.16776185
223	0x3d3225e5	0.04349317
224	0xbe9ceeaf	-0.3065085
225	0x3ccb3997	0.024807734
226	0x3e0d479d	0.1379685
227	0xbe7ded84	-0.24797636
228	0x3db34d30	0.08754957
229	0x3e36235d	0.17786928
230	0x3d14aff9	0.036300633
231	0x3dd72a78	0.10506147
232	0xbe51ba45	-0.20481212
233	0x3bf6720a	0.0075209187
234	0x3d30f540	0.04320264
235	0xbe4a8fb4	-0.19781381
236	0xbce6464e	-0.028109696
237	0x3bbd537c	0.0057777744
238	0xbd5aa901	-0.05338383
239	0xbdd0474a	-0.10169847
240	0x3bc52642	0.0060165236
241	0xbe0ddebd	-0.13854499
242	0xbe100312	-0.14063671
243	0x3d9c7080	0.07638645
244	0xbda30c06	-0.07961278
245	0x3dbb61f7	0.09149545
246	0xbe145b61	-0.14487983
247	0xbe061f49	-0.13097872
248	0xbe7b63e8	-0.2454983
249	0xbdbdeb72	-0.09273423
250	0xbd85fa75	-0.065419115
251	0xbec220f6	-0.37915772
252	0x3cb04427	0.021516873
253	0x3ea045cb	0.31303248
254	0xbe16c1da	-0.14722386
255	0xbd93a2e4	-0.07208803

sequential/dense_1/MatMul f4 [2, 16]
0	0xbef139cd	-0.4711441
1	0xbdaefa5d	-0.08543847
2	0x3e0b47a1	0.13601543
3	0x3f2e6ae2	0.6813184
4	0x3e25875c	0.16164917
5	0x3ef58d31	0.47959283
6	0xbee5da77	-0.44893238
7	0xbf2ceb23	-0.6754629
8	0xbecdadda	-0.401717
9	0xbedf988f	-0.4367108
10	0xbf48ed78	-0.7848735
11	0x3ef77eb4	0.48338854
12	0xbd5826ae	-0.052771263
13	0x3e48de60	0.1961608
14	0x3f3741d0	0.71584797
15	0x3ef89370	0.48549986
16	0x3ec0ad73	0.3763233
17	0x3f2d472d	0.6768673
18	0xbf148dd4	-0.5802891
19	0x3c131af7	0.008978597
20	0x3e74a9ca	0.23892894
21	0x3eaf98c2	0.34296232
22	0x3f0a1173	0.53932875
23	0x3ec39602	0.38200384
24	0x3e96e29b	0.2946976
25	0x3f058d86	0.5216907
26	0x3f02a53e	0.5103339
27	0xbe7ebfe4	-0.24877888
28	0x3e618106	0.22021875
29	0xbf6f0411	-0.9336558
30	0xbcda39cb	-0.026638886
31	0xbf1c6b8c	-0.61101604

sequential/conv2d/Conv2D f4 [16, 3, 3, 1]
0	0x3db06bb2	0.08614291
1	0x3dd05666	0.10172729
2	0xbd8492b9	-0.064732976
3	0xbd9ceaf4	-0.07662001
4	0xbb8708e1	-0.0041209315
5	0x3e5f9af7	0.21836458
6	0xbdf73732	-0.120710745
7	0xbd7c5601	-0.061605457
8	0xbe9b54f8	-0.30338264
9	0x3d95b510	0.073099256
10	0x3ca2fabf	0.019894956
11	0xbe0f5ca3	-0.14000182
12	0x3d75a094	0.059967592
13	0xbca72866	-0.020405006
14	0x3e906ee3	0.282096
15	0xbd6173e0	-0.055042148
16	0x3c1e8236	0.009674599
17	0xbebc2a2f	-0.36750934
18	0xbe3a16b6	-0.18172726
19	0xbc6e06ab	-0.014527957
20	0x3d214b23	0.039378297
21	0xbed1401d	-0.40869227
22	0xbdcef766	-0.10105781
23	0x3dedf3ad	0.11618743
24	0x3e99d6ad	0.30046597
25	0xbd88864d	-0.06666241
26	0x3ce2e149	0.027695315
27	0xbccd3d66	-0.025053691
28	0xbd2dc93a	-0.042428233
29	0x3ea101c2	0.31446654
30	0xbd3b23dd	-0.0456885
31	0x3d346354	0.04404004
32	0xbe53366d	-0.2062623
33	0x3d355f68	0.04428044
34	0x3c73ebfd	0.014887807
35	0x3da8d9d7	0.08244675
36	0x3ec4d270	0.384418
37	0x3e12dbc4	0.14341646
38	0xbe4cd610	-0.20003533
39	0xbe81f05b	-0.2537869
40	0x3d1b57d9	0.037925575
41	0x3e063036	0.13104329
42	0x3e94b4c8	0.29044175
43	0x3dd79276	0.10525982
44	0x3dd8999a	0.10576172
45	0x3df0ce40	0.11758089
46	0x3e707e41	0.23485662
47	0xbdcb08c4	-0.09913781
48	0xbe1a94f9	-0.15095891
49	0xbde5fc44	-0.112297565
50	0xbcef7b72	-0.029233668
51	0xbe9982f0	-0.2998271
52	0x3e4aa0d7	0.19787918
53	0x3da2a9cf	0.07942545
54	0x3e176717	0.1478542
55	0x3dcc7271	0.099827655
56	0x3ea456f7	0.320976
57	0xbd8e23e1	-0.06940437
58	0xbd207cc6	-0.039181493
59	0xbe5e6fdc	-0.21722358
60	0x3d10c178	0.035340756
61	0xbb610038	-0.0034332406
62	0x3d6be6b2	0.057593055
63	0x3e12329a	0.14277115
64	0xbd8e74af	-0.069558494
65	0xbd855765	-0.0651081
66	0x3e927904	0.28607953
67	0x3d8d3e29	0.06896622
68	0xbe0d4b13	-0.1379817
69	0xbe86c073	-0.26318702
70	0x3d919178	0.07107824
71	0x3d3f7b2f	0.046748336
72	0x3e576288	0.2103368
73	0x3e592ab1	0.21207692
74	0x3d839e65	0.06426696
75	0xbc9a93ca	-0.0188693
76	0x3d360f90	0.044448435
77	0xbdb91608	-0.09037405
78	0xbe4ee358	-0.20203912
79	0x3e802caa	0.25034076
80	0x3d37e87c	0.04489945
81	0xbd70a8c1	-0.058754686
82	0xbe83fb1d	-0.25777522
83	0x3d8bc9a3	0.068255685
84	0xbe19925f	-0.14997242
85	0xbd8bff9e	-0.068358645
86	0xbe1bd91d	-0.15219541
87	0xbe006efd	-0.12542339
88	0x3dbc5352	0.091955796
89	0x3e85a94c	0.26105726
90	0xbcee44f7	-0.02908562
91	0xbda719a5	-0.08159188
92	0xbbcc5cc7	-0.006236646
93	0xbde48277	-0.11157697
94	0x3e67d6f3	0.2264059
95	0xbddb6e2d	-0.10714374
96	0x3d6d19b6	0.057885848
97	0xbe44336c	-0.19160241
98	0x3de086b9	0.10963196
99	0x3e273294	0.16327888
100	0xbeb730f8	-0.35779548
101	0xbd14cdfb	-0.03632925
102	0x3e4c17e1	0.19930984
103	0xbbf0555e	-0.0073343953
104	0x3e29ee43	0.16594796
105	0xbe3e93bd	-0.18611045
106	0x3d008aac	0.031382248
107	0xbe3e5c38	-0.18589866
108	0x3d5fc457	0.054630604
109	0x3a6e0ead	0.00090811664
110	0x3d6613cb	0.05617122
111	0x3c8cf891	0.01720837
112	0x3b407113	0.0029364272
113	0x3ea4a144	0.32154286
114	0xbd642cbd	-0.05570673
115	0x3c531b14	0.012884874
116	0xbe165882	-0.146822
117	0xbe8b3a69	-0.27193
118	0x3d9328fc	0.071855515
119	0x3cd13d49	0.025541918
120	0xbeaff056	-0.3436305
121	0x3e0f586d	0.13998576
122	0x3d99e0b7	0.07513564
123	0x3e47407d	0.19458194
124	0xbc18f4fa	-0.009335751
125	0xbd9d27c2	-0.07673599
126	0x3ddc88da	0.1076829
127	0x3d5d63e7	0.054050352
128	0xbe9c5f55	-0.30541483
129	0xbd382f76	-0.044967137
130	0x3ddaf5a8	0.106913865
131	0xbe358556	-0.17726645
132	0xbd36abb3	-0.04459734
133	0xbdc9ad64	-0.09847525
134	0xbe1d396b	-0.15353934
135	0x3d823b8f	0.06359016
136	0xbe179b3d	-0.14805312
137	0x3e2c62e1	0.16834594
138	0xbc2371f7	-0.009975902
139	0xbd7ceadc	-0.061747417
140	0x3e792f98	0.24334562
141	0xbd6a391d	-0.057183374
142	0x3d2276b4	0.039663985
143	0xbea882fa	-0.32912427

sequential/conv2d_1/Conv2D f4 [8, 2, 2, 16]
0	0x3ca61b56	0.020276707
1	0x3eac324a	0.33632118
2	0xbe677099	-0.22601546
3	0x3e5d9768	0.21639788
4	0x3da7ce23	0.08193614
5	0x3e2f4c18	0.17118871
6	0x3e931511	0.2872701
7	0x3c311f80	0.010810733
8	0x3e45fcba	0.19334689
9	0xbd9da700	-0.07697868
10	0x3e281b7b	0.16416733
11	0x3d9be4ed	0.076120235
12	0xbd5a1299	-0.053240392
13	0xbdbd0f96	-0.092314884
14	0x3e9db206	0.30799884
15	0x3e368062	0.17822412
16	0xbe3b01b4	-0.18262368
17	0x3df89ae8	0.12138921
18	0x3e4b9cac	0.19883984
19	0xbe6bf40c	-0.23042315
20	0x3cb25820	0.021770537
21	0x3e3fe0cc	0.18738097
22	0xbc936060	-0.017990291
23	0x3e525750	0.2054112
24	0x3e5a3224	0.2130819
25	0x3cb34900	0.021885395
26	0xbb424400	-0.0029642582
27	0xbd4b9040	-0.049698114
28	0x3dcbf0b8	0.09958023
29	0xbda08db8	-0.07839531
30	0xbe46b628	-0.19405425
31	0xbd8b50c8	-0.06802517
32	0x3d9e271b	0.077223025
33	0x3e0d1af7	0.13779818
34	0xbe7061ff	-0.23474883
35	0x3d026fb9	0.03184483
36	0xbe8dd790	-0.27703524
37	0xbe837196	-0.25672597
38	0x3c309585	0.010777836
39	0xbe35df1b	-0.17760889
40	0xbe37ed55	-0.17961629
41	0xbe664d89	-0.22490515
42	0xbdd1cf84	-0.102446586
43	0xbe5cc9ae	-0.2156131
44	0x3e668917	0.22513233
45	0xbca61e0b	-0.020277997
46	0xbe19d1a5	-0.1502138
47	0xbdae0c8e	-0.08498488
48	0x3d004780	0.031318188
49	0xbe731c68	-0.23741305
50	0x3e55a4a4	0.20863587
51	0x3e36d050	0.17852902
52	0x3d1bf9c0	0.038079977
53	0x3e411dfc	0.18859094
54	0xbdaccc08	-0.084373534
55	0x3d114990	0.035470545
56	0xbc6f9240	-0.014622271
57	0x3de15338	0.11002201
58	0x3e4a7c84	0.19774061
59	0xbdb9e6c0	-0.09077215
60	0x3d0cff70	0.03442329
61	0x3e078044	0.13232523
62	0xbe4e9148	-0.20172608
63	0xbb0ab500	-0.0021165013
64	0x3e3ca205	0.1842118
65	0x3e647fbc	0.22314352
66	0x3cdec49b	0.027193358
67	0x3e6e24e5	0.23256262
68	0xbe08f33f	-0.13374041
69	0x3d92b2ad	0.07162986
70	0x3d4e556a	0.050374426
71	0xbe8cc15c	-0.27491271
72	0xbe99074a	-0.29888374
73	0xbde10ae1	-0.10988403
74	0x3e1e8190	0.15479112
75	0x3ddb1bec	0.10698685
76	0x3e638f65	0.2222267
77	0xbca203d8	-0.019777223
78	0xbdf7dce8	-0.121026814
79	0x3e894d83	0.2681695
80	0xbda747f0	-0.08168018
81	0x3e182638	0.1485833
82	0x3df88308	0.12134367
83	0xbdeac3c8	-0.114631236
84	0x3e51f250	0.20502591
85	0xbe740200	-0.23828888
86	0xbe10d604	-0.1414414
87	0x3e7ecc7c	0.24882692
88	0xbe755c94	-0.23961097
89	0xbe570888	-0.20999348
90	0xbe692c34	-0.22770768
91	0xbe58b834	-0.21164018
92	0x3e5e9c64	0.21739346
93	0xbe1c93f0	-0.15290809
94	0x3c3945c0	0.011308134
95	0x3e25f924	0.16208321
96	0x3e5c1bd1	0.21494986
97	0x3e603469	0.21894993
98	0xbe3ed79d	-0.18636937
99	0x3d8b0739	0.06788487
100	0x3d71b1ef	0.05900758
101	0xbe8e8518	-0.27835917
102	0xbd0b12bf	-0.033953425
103	0xbd5ac5f8	-0.053411454
104	0x3dd3f4e8	0.103494465
105	0xbdad537e	-0.084631905
106	0xbdeaefd0	-0.11471522
107	0x3d47b7d9	0.048759315
108	0x3d050731	0.03247756
109	0xbe5ed748	-0.21761811
110	0xbe7baf92	-0.24578694
111	0x3e502daa	0.2032992
112	0xbe70f2fc	-0.23530191
113	0xbb714400	-0.0036814213
114	0xbe5d07e0	-0.21585035
115	0x3e2acee8	0.16680491
116	0xbe410e38	-0.1885308
117	0xbe1d1438	-0.15339744
118	0x3e0e29ac	0.13883084
119	0x3e7bccec	0.2458989
120	0xbdb7d0d0	-0.08975375
121	0xbdcdf2d0	-0.100560784
122	0xbd364430	-0.044498622
123	0x3daa9ee0	0.08331084
124	0xbe043b48	-0.12913239
125	0xbd1102e0	-0.035403132
126	0xbd8f6f40	-0.07003641
127	0xbdf805c0	-0.12110472
128	0xbe03a364	-0.12855297
129	0xbdf69eb9	-0.12041993
130	0xbdf7a9a9	-0.12092907
131	0x3e168c3d	0.14701934
132	0xbebc8c39	-0.3682573
133	0xbe1acd3d	-0.15117355
134	0x3ea14613	0.31498775
135	0xbcafc30f	-0.021455316
136	0xbe6f1c64	-0.23350674
137	0xbd008be4	-0.03138341
138	0x3e2432aa	0.16034952
139	0xbe88d30b	-0.26723513
140	0x3e250d40	0.16118336
141	0xbea6b682	-0.32561117
142	0x3e6c6898	0.23086774
143	0x3e545063	0.2073379
144	0xbcaf94c0	-0.021433234
145	0xbd1cae90	-0.038252413
146	0x3d446090	0.04794365
147	0xbcdc3de0	-0.026884973
148	0xbe36a5cc	-0.17836684
149	0xbce64180	-0.028107405
150	0x3e63cc90	0.22246003
151	0x3e721ee8	0.23644602
152	0x3cc63d20	0.024199069
153	0x3dcb1f78	0.099181116
154	0x3d5a2020	0.053253293
155	0xbe3ff4a0	-0.18745661
156	0xbe7cce6c	-0.24688119
157	0xbe1dd308	-0.15412533
158	0x3e2b67bc	0.1673879
159	0xbe122c9c	-0.1427483
160	0x3e8eae41	0.2786732
161	0x3dd33840	0.10313463
162	0xbe893049	-0.2679465
163	0x3e5cc183	0.21558194
164	0x3d6ceb45	0.057841558
165	0x3e5ff04d	0.21869011
166	0xbdb6ee4e	-0.08932172
167	0xbe468a0f	-0.19388603
168	0x3df7e365	0.12103919
169	0x3e3f315c	0.18671173
170	0xbbd8db4b	-0.0066179386
171	0x3e297334	0.16547853
172	0x3e73078b	0.23733346
173	0xbd8a1942	-0.06743099
174	0x3da0aa92	0.07845034
175	0x3e3c916a	0.18414846
176	0xbc703c00	-0.014662743
177	0x3e257354	0.16157275
178	0xbe27daf8	-0.16392124
179	0xbe76d370	-0.24104095
180	0xbe2d45f0	-0.1692121
181	0xbd6032f0	-0.054736078
182	0x3d54ad50	0.051923096
183	0x3d3c5fb0	0.045989692
184	0xbc8157c0	-0.015788913
185	0x3e416354	0.18885547
186	0xbe002d28	-0.12517226
187	0xbe4d2d44	-0.20036799
188	0x3d67ea30	0.056619823
189	0x3d172ca0	0.036907792
190	0x3dbce3b0	0.092231154
191	0x3e22cd14	0.15898544
192	0xbcbbeb53	-0.02293936
193	0x3ea7c745	0.32769218
194	0xbeb287e0	-0.3486929
195	0x3e876844	0.26446736
196	0xbec696e9	-0.3878701
197	0xbe528723	-0.20559363
198	0x3e77e121	0.24206974
199	0xbed1ebc4	-0.41000187
200	0x3d8f15e4	0.06986597
201	0xbe6c2cfa	-0.23064032
202	0x3e7a1f51	0.24426009
203	0xbe6e2525	-0.23256357
204	0x3e1a1148	0.15045655
205	0xbe61f736	-0.2206696
206	0x3cd37b61	0.025815668
207	0x3da9d4d9	0.082925506
208	0xbcb79900	-0.022411823
209	0xbda8a648	-0.08234841
210	0xbdd3a010	-0.10333264
211	0x3b774100	0.0037727952
212	0xbd73b290	-0.059496462
213	0x3e667e14	0.22509032
214	0x3e730304	0.23731619
215	0xbe236e80	-0.15960121
216	0xbe6cddd0	-0.2313149
217	0x3e028754	0.12746936
218	0xbda6aaf0	-0.081380725
219	0xbe3586e4	-0.17727238
220	0x3c8e3f40	0.017364144
221	0x3c3e26c0	0.011605918
222	0xbe0707b4	-0.13186532
223	0xbe04f05c	-0.12982315
224	0x3e896114	0.26831877
225	0x3e0b5eaa	0.1361033
226	0x3d88c145	0.06677488
227	0x3e6a135f	0.22858952
228	0x3d9cfef4	0.07665816
229	0xbdac98d6	-0.08427589
230	0x3d305166	0.043046378
231	0x3c52eb60	0.012873501
232	0x3d04ad8f	0.03239208
233	0xbdb39948	-0.087694705
234	0x3e7909a9	0.24320091
235	0x3d841b59	0.06450529
236	0xbd7d24e4	-0.06180276
237	0x3e34736e	0.17622158
238	0x3db432ec	0.08798775
239	0xbd2c997b	-0.042138558
240	0xbe6b1aa4	-0.22959381
241	0xbd467840	-0.048454523
242	0x3c58c140	0.013229668
243	0x3df7ae50	0.12093794
244	0xbc8e69c0	-0.01738441
245	0xbd939408	-0.07205969
246	0xbda8d090	-0.08242905
247	0xbe4b023c	-0.19825071
248	0x3deef5e8	0.11667997
249	0xbe005b9c	-0.12534946
250	0x3e631240	0.2217493
251	0x3e5b1d88	0.21397984
252	0x3ce36240	0.02775681
253	0x3e68b678	0.22725856
254	0x3e403464	0.18769985
255	0xbe081df0	-0.1329267
